…
8              208    208         208
9              198    198         198
3537
_____
{'0': 0.001122334455667789, '1': 0.0030581039755351682, '2': 0.00390625, '3': 0.007407407407407408, '4': 0.008928571428571428, '5': 0.008849557522123894, '6': 0.004651162790697674, '7': 0.00510204081632653, '8': 0.006024096385542169, '9': 0.006329113924050633, '12': 0.00390625}
Model: "sequential_1"
_________________________________________________________________
Layer (type)                 Output Shape              Param #   
=================================================================
conv1 (Conv2D)               (None, 20, 20, 16)        160       
_________________________________________________________________
act1 (Activation)            (None, 20, 20, 16)        0         
_________________________________________________________________
pool1 (MaxPooling2D)         (None, 10, 10, 16)        0         
_________________________________________________________________
conv2 (Conv2D)               (None, 10, 10, 32)        4640      
_________________________________________________________________
act2 (Activation)            (None, 10, 10, 32)        0         
_________________________________________________________________
pool2 (MaxPooling2D)         (None, 5, 5, 32)          0         
_________________________________________________________________
flatten (Flatten)            (None, 800)               0         
_________________________________________________________________
dense4 (Dense)               (None, 16)                12816     
_________________________________________________________________
act4 (Activation)            (None, 16)                0         
_________________________________________________________________
dense5 (Dense)               (None, 11)                187       
_________________________________________________________________
last_act (Activation)        (None, 11)                0         
=================================================================
Total params: 17,803
Trainable params: 17,803
Non-trainable params: 0
_________________________________________________________________
None
Train on 2825 samples, validate on 712 samples
Epoch 1/400

  32/2825 [..............................] - ETA: 12s - loss: 2.3805 - accuracy: 0.1250
 192/2825 [=>............................] - ETA: 2s - loss: 2.3796 - accuracy: 0.1250 
…
